runs/warhammer40k.pt (torch, 2360 bytes, 4 tensors)

fc1.weight f4 [10, 4]
00000000: d5b4 f5be 2780 603e 4024 1ebf e5a5 0e3e
00000010: 4c62 b3be a4cf f2be 2073 d73c 34ba 2ebe
00000020: d0a3 27be 00aa 753d 48de b2be 3cd2 3cbe
00000030: 16b3 95c0 976e 9dbf 2d8a 0740 3579 fd3f
00000040: 8740 94bf 02f8 45bf dafc 4740 b0c5 6040
00000050: 104c 7ac0 b355 14c0 5abe 0b40 c8e8 1440
00000060: 2dd9 8bbf 28bc a2bf 1bcd 2c40 4fa3 6a40
00000070: 92c0 86be 645b 763e fc74 8ebe c6ba 8abe
00000080: 93c8 88bf 2ee5 1cbf 8cdb 5440 fc5c 5a40
00000090: affd 4a3e b82f 073e 91e2 11bf 0a6f 0fbe
-0.47989526 0.21923886 -0.61774063 0.13930471 -0.35035932 -0.47424042 0.026300013 -0.17063218
-0.16371083 0.059976578 -0.34935212 -0.18439573 -4.678111 -1.2299374 2.1178086 1.9802614
-1.1582192 -0.77331555 3.1248078 3.512066 -3.9108925 -2.3177307 2.1834931 2.3267078
-1.0925652 -1.2713671 2.7000186 3.6662176 -0.26318794 0.240583 -0.27823627 -0.27095622
-1.068621 -0.612872 3.3259 3.4119253 0.19823335 0.13201797 -0.5698634 -0.14007202

fc1.bias f4 [10]
00000000: ba26 b9bd f010 55be feb9 df3e 2a04 c23f
00000010: 1731 5a40 2dc8 ef3f ff27 6140 9043 de3d
00000020: 104c 4240 329e 14bf
-0.0904059 -0.20807242 0.43696588 1.5157521 3.4092462 1.8732964 3.5180662 0.1085273
3.0358925 -0.58053887

output.weight f4 [4, 10]
00000000: 2a04 213e 4d10 8ebe 2afd c5bd d8b0 0bc0
00000010: 0749 11c0 4540 10c0 27e2 27c0 0c8c b73d
00000020: 41d5 0ec0 b5da 133f 2eed 0bbe e788 22be
00000030: 3ac8 2dbd c3e1 28c0 38ef 18c0 e7fa 0cc0
00000040: 3b42 0cc0 96b9 aebd e840 1ec0 9e67 eebc
00000050: 13d8 7e3d 7bb4 723e 9839 89be b4bc 0fc0
00000060: f515 29c0 8c35 1ac0 a885 0fc0 49f2 303e
00000070: 2879 14c0 35be 153f ec76 2cbe a6d3 103d
00000080: 24ad 92be 8573 07c0 563a 0bc0 3238 23c0
00000090: a63a 1dc0 9546 033e 9d2a 2ac0 a961 dc3d
0.15724245 -0.27746812 -0.09667428 -2.1826687 -2.2700822 -2.2539227 -2.6231782 0.08962259
-2.231766 0.57755595 -0.13664696 -0.15872537 -0.04242728 -2.6387794 -2.3896008 -2.2028139
-2.1915424 -0.085314915 -2.4727116 -0.029102143 0.062217783 0.2370166 -0.26801753 -2.2458925
-2.6419652 -2.4095182 -2.2425327 0.17279924 -2.3198948 0.5849336 -0.1684224 0.035358094
-0.2864772 -2.1164258 -2.1754355 -2.550305 -2.4567046 0.12819894 -2.658851 0.10760815

output.bias f4 [4]
00000000: dd77 f2bf 2a2a c7bf f92c c8bf a915 1ec0
-1.8942829 -1.5559742 -1.5638725 -2.470072
