runs/warhammer40k.pt (torch, 2360 bytes, 4 tensors)

fc1.weight f4 [10, 4]
0	0x3eba4334	0.36379397
1	0xbece5d8e	-0.40305752
2	0xbe19cb3c	-0.15018934
3	0xbea548da	-0.32282144
4	0x3e4c1194	0.1992858
5	0xbd8e4c28	-0.069481194
6	0xbdd58388	-0.10425478
7	0xbea2a9be	-0.31770128
8	0x3bccec80	0.006253779
9	0x3d8f9948	0.07011658
10	0x3d778040	0.060425043
11	0xbea957c4	-0.33074772
12	0x3d0ca020	0.034332395
13	0x3eb0e5ba	0.34550267
14	0xbebcfbf0	-0.36910963
15	0x3e86f16e	0.2635607
16	0x3e5f316c	0.21796197
17	0xbeeadbe6	-0.45870894
18	0x3eaeee90	0.34166384
19	0xbdf18160	-0.117922544
20	0xbefa2620	-0.48857212
21	0x3bff9580	0.007799804
22	0xbec94c5e	-0.39316076
23	0x3eea3332	0.45742184
24	0xbc077680	-0.008267999
25	0xbeb6e3d8	-0.35720706
26	0x3e8ea4f8	0.27860236
27	0x3dce2398	0.10065383
28	0x3ea03080	0.31287003
29	0x3e806d60	0.25083447
30	0xbeac08b2	-0.33600384
31	0x3e52e1b8	0.20593917
32	0x3ee8fc6e	0.4550509
33	0xbe445a18	-0.19174993
34	0x3e9be346	0.30446833
35	0x3e866518	0.26249003
36	0x3daa89d0	0.08327067
37	0xbe3bd3b4	-0.18342477
38	0xbe430ed0	-0.1904862
39	0x3d495420	0.049152493

fc1.bias f4 [10]
0	0x3ee5b652	0.44865662
1	0xbd941238	-0.072300375
2	0xbe3c1e5c	-0.18370956
3	0xbefdc65a	-0.49565393
4	0x3dbe20b8	0.09283584
5	0xbe7fa51c	-0.24965328
6	0x3e104cd4	0.14091808
7	0x3eba34d0	0.36368418
8	0x3e9ae68c	0.30254018
9	0x3eb130c0	0.34607506

output.weight f4 [4, 10]
0	0x3b23c760	0.0024990663
1	0x3e8557d3	0.26043567
2	0xbdf29c24	-0.11846188
3	0xbd6a09b3	-0.057138156
4	0x3e99f54d	0.30069962
5	0xbe0925f8	-0.1339339
6	0xbe76deb6	-0.24108395
7	0x3d3172e9	0.043322477
8	0x3df8ed27	0.12154608
9	0x3debfd9d	0.11522982
10	0x3dcfd881	0.10148717
11	0xbd92374a	-0.07139452
12	0xbe154bcd	-0.14579697
13	0x3d5253f1	0.051349584
14	0xbe68cf84	-0.22735411
15	0xbe62d9ea	-0.2215344
16	0xbe37f015	-0.17962678
17	0xbe7ef19e	-0.24896857
18	0xbc510143	-0.0127566485
19	0x3e9c75a4	0.30558503
20	0x3b888204	0.0041658897
21	0x3e3073ac	0.17231625
22	0x3e677b8d	0.22605725
23	0xbe3319aa	-0.17490259
24	0xbd497a9b	-0.04918919
25	0x3dad6ad7	0.08467644
26	0x3e7d2343	0.24720483
27	0x3abd0e07	0.0014423736
28	0xbe0733b4	-0.13203317
29	0xbe5b79ba	-0.21433154
30	0x3e8e9c3c	0.27853572
31	0x3e5f4ac1	0.2180586
32	0xbe907dbb	-0.28220925
33	0xbdc2e054	-0.095154434
34	0x3e6a7cd6	0.22899184
35	0x3e4b3831	0.19845654
36	0x3e15470c	0.14577883
37	0x3e862d44	0.2620641
38	0xbe9f6a08	-0.31135583
39	0xbe944722	-0.2896052

output.bias f4 [4]
0	0xbe05dec0	-0.13073254
1	0x3db7f2be	0.08981846
2	0x3db2da39	0.08733029
3	0xbe90d6b7	-0.28288814
